models/cifar10_cnn.pt (torch, 847685 bytes, 8 tensors)

net.0.weight f4 [16, 3, 3, 3]
0.046768107 -0.15073797 -0.2449428 -0.18338345 0.08306794 -0.06902944 0.11680749 0.05220548
0.29335982 0.010629954 -0.17910497 -0.19416803 -0.17343162 -0.05145981 -0.021586878 0.064395554
0.2901476 0.3081066 -0.08074455 0.15290266 0.045868546 -0.099611335 -0.086357616 -0.07923247
-0.038720604 0.18197295 -0.0015031181 -0.011004784 -0.2597095 0.07994128 -0.16970743 -0.10629798
0.13955876 -0.11716845 -0.11017735 0.31105828 0.00610298 -0.18709089 0.123755686 0.049801134
-0.039354 0.11750723 0.028099706 -0.09473368 0.10705307 -0.12083413 -0.109619334 0.043002386
-0.019598493 -0.2637349 0.27509043 -0.16552992 0.09793681 0.20884636 0.05616372 0.15295699
0.104270466 0.1455203 -0.088087656 -0.06735594 0.12908094 0.16933966 0.025746644 -0.12352273
0.032988604 0.09020762 0.08926008 -0.0042310487 -0.008492994 -0.015666924 -0.053902123 0.1495026
0.17231205 0.11920456 -0.09066562 -0.24068774 -0.2252532 -0.23947155 -0.19181618 -0.20219877
0.09463456 -0.024622511 -0.12568706 0.19081794 -0.16953063 -0.19483417 -0.2233611 0.05630276
-0.081856124 0.020368181 0.10136166 0.13662645 0.15093896 -0.12900458 -0.010634681 0.06322089
0.014668689 -0.13637845 0.18495539 0.099069 0.15224698 0.21768221 -0.16698517 -0.14833859
0.036830585 -0.045023266 0.0036288537 0.021613847 -0.05522655 -0.019378848 0.19705997 -0.005530947
-0.1477996 -0.03586496 0.1489781 0.034254346 0.17932776 0.011152496 0.26299247 -0.1102577
-0.21191873 0.12364919 -0.12632136 -0.20130977 -0.1455383 -0.23007531 0.022837149 0.12130043
0.23963831 -0.11125728 0.16715936 0.06912143 0.077598594 -0.089788266 -0.19252002 -0.020733435
0.13775547 -0.00045126872 -0.09616418 -0.17280799 -0.09214897 -0.13496186 0.03426325 -0.13212517
-0.029528946 0.26967162 0.021436024 0.20055833 -0.03067933 -0.1215028 -0.038000643 0.113420986
-0.15693237 0.14394286 -0.06050982 0.16682291 0.00029147754 0.08173913 -0.19863062 0.11866634
-0.20053166 -0.11168412 0.12472684 -0.2522789 -0.21092725 0.15535086 -0.22499105 -0.051228896
0.14214239 0.03515922 0.018666448 -0.17353234 -0.20107083 -0.08633039 0.16069573 -0.014954833
0.013266084 0.19516727 -0.12516282 -0.18007147 0.106085576 -0.072118446 -0.11014289 0.14253494
0.16664489 0.01526616 0.026759295 0.12155623 0.13423863 -0.07204804 -0.02263358 0.12208581
0.19786774 0.21654834 -0.2495711 0.25239268 -0.12602471 0.079217434 0.031025251 0.19653237
-0.2341989 0.20370063 -0.10221276 -0.14368658 -0.033071585 -0.08192271 -0.3062742 0.05179926
0.1936153 -0.15975282 0.11387448 -0.12170161 0.08035104 0.012579767 0.11911813 -0.24193071
-0.20938526 -0.26005223 0.0575752 0.09324655 0.13822813 -0.18865128 0.2396755 0.23987865
0.020210568 -0.21207635 0.015952345 0.0072293757 -0.08327363 -0.053575702 -0.085142136 0.049997237
0.08811354 0.13902555 0.111505024 -0.007085351 -0.04166268 0.10097748 -0.067790076 0.10418944
-0.054024257 -0.08973902 -0.009482688 0.024669722 -0.07189348 -0.049178813 0.16257112 -0.15333019
0.078237124 -0.15782173 0.053574134 -0.025326423 -0.11517368 0.12475608 0.11167109 0.14169417
00000000: ea8f 3f3d 0e5b 1abe 49d2 7abe dfc8 3bbe
00000010: 861f aa3d 4f5f 8dbd c438 ef3d 6ad5 553d
00000020: 4233 963e 4229 2e3c 4b67 37be fcd3 46be
00000030: 0f98 31be 86c7 52bd f7d6 b0bc d1e1 833d
00000040: 3a8e 943e 26c0 9d3e 665d a5bd 8492 1c3e
00000050: a8e0 3b3d 0701 ccbd 43dc b0bd a244 a2bd
00000060: 7f99 1ebd 1e57 3a3e 4604 c5ba 694d 34bc
00000070: a5f8 84be 41b8 a33d c9c7 2dbe c1b2 d9bd
00000080: 7ee8 0e3e 03f6 efbd aaa4 e1bd 0843 9f3e
00000090: 82fb c73b c194 3fbe 9f73 fd3d 46fc 4b3d
000000a0: a931 21bd a1a7 f03d 5b31 e63c bb03 c2bd
000000b0: a43e db3d e277 f7bd 1a80 e0bd 4523 303d
000000c0: 058d a0bc 4308 87be a7d8 8c3e ad80 29be
000000d0: 1893 c83d d2db 553e ee0b 663d c2a0 1c3e
000000e0: c18b d53d 4603 153e 4d67 b4bd e9f1 89bd
000000f0: cb2d 043e 6067 2d3e a0ea d23c 7cf9 fcbd
00000100: 0f1f 073d c6be b83d fdcd b63d 9ca4 8abb
00000110: 3326 0bbc ec57 80bc 79c8 5cbd 3617 193e
00000120: 9272 303e 8521 f43d e6ae b9bd d976 76be
00000130: c6a8 66be 0838 75be 766b 44be 320d 4fbe
00000140: c4cf c13d 26b5 c9bc 1cb4 00be c765 433e
00000150: 7099 2dbe 9c82 47be c6b8 64be b99d 663d
00000160: 2fa4 a7bd 2cdb a63c b496 cf3d cee7 0b3e
00000170: be8f 1a3e c719 04be 163d 2ebc f479 813d
00000180: f154 703c cba6 0bbe f264 3d3e b0e4 ca3d
00000190: a2e6 1b3e 16e8 5e3e 29fe 2abe 12e6 17be
000001a0: abdb 163d 516a 38bd 10d2 6d3b 860f b13c
000001b0: 3c35 62bd 64c0 9ebc 17ca 493e f23c b5bb
000001c0: c758 17be 23e7 12bd b78d 183e 494e 0c3d
000001d0: b2a1 373e f5b8 363c f3a6 863e cace e1bd
000001e0: 3901 59be c93b fd3d 635a 01be 2624 4ebe
000001f0: fe07 15be dd98 6bbe f914 bb3c 5c6c f83d
00000200: bf63 753e dbda e3bd d32b 2b3e 898f 8d3d
00000210: 03ec 9e3d e9e2 b7bd f823 45be 2ad9 a9bc
00000220: c50f 0d3e 4398 ecb9 baf1 c4bd 94f4 30be
00000230: 99b8 bcbd 7133 0abe 9f57 0c3d d24b 07be
00000240: b0e6 f1bc 6612 8a3e 9a9a af3c 2a5f 4d3e
00000250: 3853 fbbc 76d6 f8bd 90a6 1bbd 4349 e83d
00000260: e1b2 20be c265 133e 25d9 77bd a0d3 2a3e
00000270: 74d1 9839 d866 a73d d365 4bbe 5707 f33d
00000280: 2c58 4dbe a5ba e4bd c970 ff3d b32a 81be
00000290: 50fd 57be 4c14 1f3e 0e64 66be 64d5 51bd
000002a0: c68d 113e 1d03 103d 61ea 983c 76b2 31be
000002b0: 83e5 4dbe fdcd b0bd 6c8d 243e 1e05 75bc
000002c0: fd59 593c eed9 473e af2a 00be a864 38be
000002d0: 6543 d93d d6b2 93bd 9892 e1bd aef4 113e
000002e0: f5a4 2a3e ea1e 7a3c 4f36 db3c 79f2 f83d
000002f0: da75 093e ec8d 93bd 0f6a b9bc 2008 fa3d
00000300: d79d 4a3e d9be 5d3e 918f 7fbe 9d39 813e
00000310: 9f0c 01be c03c a23d ab28 fe3c c83f 493e
00000320: d6d1 6fbe e696 503e ec54 d1bd 9322 13be
00000330: 1276 07bd 18c7 a7bd f9cf 9cbe 762b 543d
00000340: 1743 463e 3e96 23be 0637 e93d b23e f9bd
00000350: 168f a43d 5e1b 4e3c 35f4 f33d afbc 77be
00000360: 1769 56be 9125 85be f9d3 6b3d 0cf8 be3d
00000370: ad8b 0d3e cd2d 41be 7f6d 753e c0a2 753e
00000380: a290 a53c 8b2a 59be 7eae 823c 66e4 ec3b
00000390: 5d8b aabd 3272 5bbd 005f aebd e7c9 4c3d
000003a0: df74 b43d b75c 0e3e bf5c e43d 3b2c e8bb
000003b0: 7da6 2abd 48cd ce3d 86d5 8abd 4661 d53d
000003c0: 8a48 5dbd 17c9 b7bd 475d 1bbc 2818 ca3c
000003d0: e43c 93bd b96f 49bd 0b79 263e 9702 1dbe
000003e0: c93a a03d 059c 21be 8d70 5b3d 5c79 cfbc
000003f0: 2ee0 ebbd 1e80 ff3d d0b3 e43d 4718 113e

net.0.bias f4 [16]
-0.02172651 0.1380141 -0.18134174 -0.102646224 -0.20332447 0.23466608 -0.05090671 0.04133317
0.02216141 0.12701517 0.18537815 0.20568432 -0.240597 -0.021792646 -0.22539358 0.0028868082
00000000: cbfb b1bc 9153 0d3e a6b1 39be 2f38 d2bd
00000010: 4a34 50be 4e4c 703e 8e83 50bd f84c 293d
00000020: d88b b53c 4410 023e c5d3 3d3e e99e 523e
00000030: 0f5f 76be 7e86 b2bc 93cd 66be 9b30 3d3b

net.3.weight f4 [32, 16, 3, 3]
-0.00492571 -0.15216601 -0.0437492 -0.11959663 0.0007642063 0.06540376 -0.06389371 0.0024475472
0.08252425 -0.031089285 -0.04591718 -0.073732965 -0.022542488 0.033151537 -0.011763811 0.098533005
-0.035802722 0.0074922317 -0.11653061 -0.03887622 0.01668046 -0.011328617 0.030202933 0.027134813
-0.010391307 -0.058900673 -0.076611914 -0.06686486 -0.052859485 -0.013593228 -0.035916004 -0.005855713
-0.060298566 -0.011729732 -0.15543713 -0.12732609 -0.051798962 -0.067825004 -0.024363829 -0.03216417
0.029329317 -0.074191324 0.032794006 -0.008381948 -0.0546534 -0.0576827 -0.066538945 0.08319018
0.037306756 0.038191613 0.017151667 -0.0004761674 0.07366554 -0.02083475 -0.14309342 -0.12180581
-0.17364016 -0.003987504 -0.1189089 -0.12463975 -0.08019284 0.043040894 0.05836352 0.08150285
-0.028049137 -0.028826188 -0.002837287 -0.017220112 0.024131434 0.113398075 -0.05933622 -0.0073610405
-0.109198995 -0.06547315 -0.047384616 -0.131248 -0.10218402 -0.03239556 -0.0969825 -0.019994345
0.07214252 0.029452175 -0.020914879 -0.039256122 0.032310337 -0.10484336 -0.025159655 -0.037667196
0.033086162 0.10120046 0.05539988 0.015275708 -0.024913749 0.021061033 -0.07236144 -0.01731099
0.08512862 0.014187806 -0.05173534 -0.020661179 0.0024102924 -0.033197436 -0.04601921 -0.08425964
-0.07114462 0.06626907 0.012459351 0.010611862 -0.010178613 -0.10526534 -0.097342506 -0.07570374
-0.04359552 0.034103714 0.021429276 0.029785806 -0.008492596 0.021801597 0.056125313 0.024665331
0.08182929 0.06885401 0.0046956195 0.025077919 0.031281807 0.017785337 -0.046183098 -0.0147702135
-0.033671185 -0.06599228 -0.057731222 -0.020265143 0.035023518 -0.011437709 0.05873889 -0.005295383
-0.042827837 -0.05095581 -0.16247308 0.03546905 0.017801574 -0.045758374 0.047518045 0.066307254
0.055246487 -0.0659642 -0.09481489 -0.0050169714 0.02092203 -0.19746695 -0.17485256 0.07038797
-0.042250227 -0.074833594 0.009083162 -0.08188404 -0.16040327 -0.10245821 -0.06984563 -0.06768617
-0.14196625 -0.04286531 0.059199568 0.11084306 0.09950207 -0.088108316 -0.018948564 0.022475915
0.050451856 -0.0857467 -0.053059705 0.0029169896 0.014030054 -0.0333871 -0.12743302 0.016639123
0.14630568 0.019088693 -0.08930725 0.025157655 0.045140084 0.060715467 0.067888424 -0.1603285
0.03509103 0.24739732 0.09633908 -0.069775455 0.012315853 0.0019887283 0.07038204 -0.120085336
0.011387151 -0.041056253 -0.06668294 -0.0037705302 -0.030858641 -0.015316347 0.10233225 -0.15815826
-0.11754967 0.11399829 0.047390763 -0.2197216 -0.09435406 0.07730027 0.201981 0.012514919
-0.1574299 -0.19648887 -0.011274733 0.015423177 -0.12644014 -0.061474826 -0.020387782 0.072821334
0.17158948 -0.094143145 -0.015918097 -0.004851534 0.14261505 -0.020580942 -0.20141083 0.08928241
0.16800608 -0.08222989 0.0374664 -0.004469825 0.03547913 -0.08131552 0.054949384 0.11995685
0.005723348 -0.1661696 0.14058346 0.059174366 0.0585991 -0.083226025 0.07441926 0.08001754
-0.11604294 -0.14149837 0.12733491 0.006300248 0.06882668 -0.094310015 -0.10931042 0.020450084
0.1506863 0.15529713 0.06003736 -0.06875737 -0.016284075 0.0489934 -0.012750747 -0.055497747
00000000: da67 a1bb 68d1 1bbe 5c32 33bd 14ef f4bd
00000010: 0455 483a 68f2 853d b5da 82bd 0767 203b
00000020: 7902 a93d f5ae febc a713 3cbd 4f01 97bd
00000030: 06ab b8bc e8c9 073d 00bd 40bc accb c93d
00000040: e0a5 12bd 6581 f53b 9aa7 eebd ac3c 1fbd
00000050: 76a5 883c aa9b 39bc 246c f73c d449 de3c
00000060: 4d40 2abc d541 71bd b5e6 9cbd 72f0 88bd
00000070: 3083 58bd 21b6 5ebc a91c 13bd 48e1 bfbb
00000080: a1fb 76bd 102e 40bc e92a 1fbe c561 02be
00000090: 262b 54bd d6e7 8abd a796 c7bc 94be 03bd
000000a0: 0944 f03c 9ff1 97bd 0253 063d 7054 09bc
000000b0: 3edc 5fbd b244 6cbd 9245 88bd 9d5f aa3d
000000c0: f8ce 183d cf6e 1c3d a781 8c3c 1ba6 f9b9
000000d0: f5dd 963d a3ad aabc 1587 12be 5375 f9bd
000000e0: bace 31be 9ca9 82bb 8286 f3bd 2043 ffbd
000000f0: 253c a4bd a64b 303d 960e 6f3d f7ea a63d
00000100: 4ec7 e5bc e624 ecbc c7f1 39bb 3111 8dbc
00000110: 49af c53c 403d e83d 890a 73bd e234 f1bb
00000120: b9a3 dfbd c916 86bd 5f16 42bd e065 06be
00000130: db45 d1bd 35b1 04bd c39e c6bd 2ecb a3bc
00000140: 75bf 933d b045 f13c ae55 abbc 07cb 20bd
00000150: d857 043d 1eb8 d6bd 9f1b cebc eb48 1abd
00000160: 5b85 073d 3042 cf3d fcea 623d f746 7a3c
00000170: eb17 ccbc 3088 ac3c 3c32 94bd c7cf 8dbc
00000180: ea57 ae3d f973 683c 70e8 53bd a241 a9bc
00000190: fff5 1d3b 09fa 07bd a47e 3cbd 5190 acbd
000001a0: 45b4 91bd 14b8 873d 4e22 4c3c 60dd 2d3c
000001b0: 32c4 26bc 5b95 d7bd 825b c7bd 900a 9bbd
000001c0: 3791 32bd 56b0 0b3d 738c af3c 5d01 f43c
000001d0: 8824 0bbc 4399 b23c a8e3 653d f30e ca3c
000001e0: 1d96 a73d 5503 8d3d b6dd 993b 3570 cd3c
000001f0: 5a21 003d 8eb2 913c 7d2a 3dbd c4fe 71bc
00000200: ccea 09bd f626 87bd 9377 6cbd 1603 a6bc
00000210: d274 0f3d 3b65 3bbc 3198 703d e484 adbb
00000220: 3e6c 2fbd 0ab7 50bd 585f 26be ff47 113d
00000230: 9bd4 913c 226d 3bbd 48a2 423d 19cc 873d
00000240: 244a 623d 3d18 87bd 4f2e c2bd 6865 a4bb
00000250: ad64 ab3c c734 4abe 8d0c 33be 9127 903d
00000260: 930e 2dbd 5b42 99bd 8bd1 143c d2b2 a7bd
00000270: c140 24be 9cd5 d1bd 3a0b 8fbd 0c9f 8abd
00000280: 9a5f 11be 8993 2fbd 3f7b 723d b001 e33d
00000290: bec7 cb3d 2272 b4bd 053a 9bbc 691f b83c
000002a0: 9ba6 4e3d f79b afbd 2255 59bd f72a 3f3b
000002b0: 50de 653c e9c0 08bd cd7d 02be c54e 883c
000002c0: 28d1 153e e45f 9c3c b8e6 b6bd 6d17 ce3c
000002d0: cfe4 383d c8b0 783d 1609 8b3d 282d 24be
000002e0: 9dbb 0f3d b955 7d3e 6c4d c53d 6fe6 8ebd
000002f0: 6ec8 493c 5355 023b 7624 903d 4def f5bd
00000300: 2c91 3a3c 9a2a 28bd 1191 88bd 001b 77bb
00000310: 43cb fcbc 6af1 7abc 9293 d13d 3df4 21be
00000320: e2bd f0bd ef77 e93d d11c 423d b3fe 60be
00000330: b43c c1bd 9b4f 9e3d 1bd4 4e3e 600b 4d3c
00000340: 4e35 21be 6134 49be a8b9 38bc 7eb1 7c3c
00000350: 8679 01be 07cd 7bbd 4704 a7bc 5a23 953d
00000360: 27b5 2f3e 1fce c0bd ab66 82bc 9ef9 9ebb
00000370: ae09 123e 5d99 a8bc a43e 4ebe b2d9 b63d
00000380: c909 2c3e 2568 a8bd 5e76 193d 9c77 92bb
00000390: 9052 113d c088 a6bd 9b12 613d f0ab f53d
000003a0: ec8a bb3b 5d28 2abe 1cf5 0f3e d260 723d
000003b0: 9c05 703d 6872 aabd 2069 983d 3ce0 a33d
000003c0: eca7 edbd f3e4 10be 1564 023e 5072 ce3b
000003d0: 01f5 8c3d 9c25 c1bd 24de dfbd ef86 a73c
000003e0: 824d 1a3e 3606 1f3e bce9 753d aad0 8cbd
000003f0: 2e66 85bc 4ead 483d 82e8 50bc 9b51 63bd

net.3.bias f4 [32]
0.06830632 0.018423742 0.0011660575 -0.049842365 -0.14071494 0.08103689 0.17245492 -0.10770171
-0.17240497 0.025765903 -0.054406866 0.092111886 0.20875539 0.047478843 0.087712325 -0.04010525
-0.018305128 0.0718773 -0.17488755 0.009015655 -0.031856414 0.15952541 0.101064354 -0.06702403
0.012669099 -0.06827849 -0.04223653 -0.1906616 -0.053192094 0.085821725 0.101520896 0.0018939109
00000000: 2fe4 8b3d 63ed 963c 66d6 983a 8227 4cbd
00000010: 9417 10be abf6 a53d 0698 303e b792 dcbd
00000020: ee8a 30be 0413 d33c bcd9 5ebd 28a5 bc3d
00000030: f9c3 553e 2d79 423d 85a2 b33d 6745 24bd
00000040: a3f4 95bc 6834 933d b915 33be 66b6 133c
00000050: df7b 02bd a15a 233e d4fa ce3d e543 89bd
00000060: 0d92 4f3c 98d5 8bbd 3600 2dbd cb3c 43be
00000070: f4df 59bd 4dc3 af3d 30ea cf3d 1b3d f83a

net.7.weight f4 [100, 2048]
0.006187905 0.022513494 0.02935405 0.015951676 0.02327002 0.0013603511 0.0187148 0.0014413384
0.03477098 0.023683932 0.021566378 -0.0012447021 -0.017266063 -0.046224207 -0.0045414036 -0.011871397
0.017533608 0.019619446 0.032559894 -0.05811121 -0.045022916 -0.016322376 0.014882176 -0.0023660848
0.0033497438 0.028059216 -0.0013666366 -0.030267585 -0.06779763 0.020062018 0.034108806 0.017145514
-0.040285733 0.02359544 0.0053096777 0.0051702196 0.010377349 0.014267979 0.05172384 0.014287737
-0.047468357 0.0205199 -0.003013702 0.06909847 0.027963592 0.028357562 0.023521485 0.03194902
-0.056289483 -0.030585865 -0.025933111 0.002119116 0.026798887 0.021541027 0.031024773 -0.0077967406
-0.03635285 -0.029530521 -0.013125628 -0.009354609 0.016742662 0.017581241 0.028522788 0.0032253081
0.0049568717 -0.0522495 -0.026175411 -0.015997564 -0.052794166 0.010728006 0.014785033 0.014174371
-0.020374116 -0.06567509 -0.092654355 0.008803406 0.02163119 0.030953173 0.017514955 0.0044425735
-0.010819811 0.078366205 -0.042403106 -0.051087297 0.011046559 0.074319914 0.057510443 -0.03137427
0.042586666 0.0997078 0.07704238 -0.0030199112 -0.0015083954 0.032524887 0.038710937 0.035142586
0.021802794 0.03326566 0.069192365 0.004380855 -0.026536005 -0.034619622 -0.039614975 -0.02345709
0.032759238 0.07727341 0.045272294 -0.0054298732 -0.028530134 -0.006454041 0.038441796 -0.042335108
-0.0012481197 0.024647778 0.039342936 0.01112679 0.043694984 -0.06928972 -0.017095473 -0.050920513
-0.03664675 -0.03066333 -0.019568581 -0.013760922 -0.03426411 -0.050405134 -0.10026954 -0.04383391
-0.040674195 -0.010642975 -0.008411753 -0.014760603 -0.00074000045 0.014981682 0.03169725 0.0054441085
-0.040515076 -0.009114978 0.015216195 0.041913804 0.046652194 0.010522707 -0.0018396288 0.00698503
-0.00717772 0.024530485 0.010718405 0.044749044 0.0044188374 -0.027194573 -0.06229841 -0.07257995
-0.009188326 0.026433744 0.019704834 -0.002355587 -0.038476925 0.027913272 0.06725494 -0.002700176
-0.017760128 -0.023722323 -0.046078954 -0.066859186 -0.0495682 -0.015719872 0.009614835 -0.01336982
-0.016099114 0.023529505 -0.0066560525 -0.08207164 -0.047928255 0.042872947 0.021557001 -0.03244329
-0.04708044 -0.02927703 0.05506147 0.06602979 0.059456013 0.03641596 -0.019590529 0.0079113515
-0.03181114 0.005745949 0.015662812 0.033662874 0.03346852 0.018735113 -0.014530735 -0.009890669
0.02893241 0.011566763 -0.00722593 -0.04841509 0.0072393473 0.008649217 0.05225268 0.07264506
0.028720189 0.061847493 -0.0007408151 -0.014773206 0.035910368 0.021447806 0.016460584 0.0019296845
0.068457745 0.12644453 0.010226956 -0.00867355 0.04224601 0.075943224 0.03134634 -0.037526887
0.07738858 -0.015144928 -0.049325954 -0.0384328 0.04351355 0.0415732 0.047171444 -0.026991429
0.077311344 0.03319535 -0.012519135 0.07256285 0.037398323 0.034862008 0.029972248 0.0038536238
0.08486944 0.04503147 0.05701142 0.037949316 0.0061666993 -0.011886401 0.033855554 -0.05859228
0.0027035223 -0.005230327 -0.012553717 -0.018503489 -0.05287351 -0.04033595 -0.01285379 0.0005673027
-0.027091969 -0.049846437 -0.06241104 -0.09363556 -0.09609785 -0.075803615 -0.064442396 -0.056274023
00000000: e9c3 ca3b 386e b83c e877 f03c 17ad 823c
00000010: c5a0 be3c cf4d b23a c84f 993c 4beb bc3a
00000020: 046c 0e3d ce04 c23c f9ab b03c 4625 a3ba
00000030: 8f71 8dbc 9855 3dbd 0ed0 94bb 3f80 42bc
00000040: a4a2 8f3c f6b8 a03c 865d 053d 0506 6ebd
00000050: f369 38bd 81b6 85bc 5fd4 733c 5110 1bbb
00000060: 6087 5b3b 71dc e53c b720 b3ba baf3 f7bc
00000070: 7cd9 8abd 1a59 a43c adb5 0b3d c074 8c3c
00000080: a702 25bd 394b c13c cefc ad3b f26a a93b
00000090: c205 2a3c 3ec4 693c 61dc 533d 1d17 6a3c
000000a0: 2e6e 42bd 5919 a83c 8881 45bb 8083 8d3d
000000b0: e713 e53c 1e4e e83c 21b0 c03c fadc 023d
000000c0: cd8f 66bd 358f fabc ad71 d4bc dee0 0a3b
000000d0: 5789 db3c cf76 b03c aa27 fe3c cd7b ffbb
000000e0: bae6 14bd fee9 f1bc e00c 57bc 1344 19bc
000000f0: e827 893c 8906 903c 9fa8 e93c b15f 533b
00000100: 416d a23b 9203 56bd d16d d6bc 530d 83bc
00000110: b23e 58bd 85c4 2f3c ec3c 723c 9f3b 683c
00000120: 9ee7 a6bc a980 86bd 91c1 bdbd 293c 103c
00000130: e533 b13c 8291 fd3c 867b 8f3c 0293 913b
00000140: 9445 31bc 767e a03d e1ae 2dbd ea40 51bd
00000150: a0fc 343c 0a35 983d 1290 6b3d 4e82 00bd
00000160: 5b6f 2e3d 9a33 cc3d 65c8 9d3d b4e9 45bb
00000170: 5ab5 c5ba d138 053d 5c8f 1e3d acf1 0f3d
00000180: c69b b23c 9341 083d bab4 8d3d 468d 8f3b
00000190: 0962 d9bc 4ecd 0dbd 5043 22bd 1529 c0bc
000001a0: 8d2e 063d 8641 9e3d 716f 393d 14ed b1bb
000001b0: 07b8 e9bc 6c7c d3bb 2575 1d3d 9467 2dbd
000001c0: f397 a3ba 23ea c93c 0f26 213d 244d 363c
000001d0: 83f9 323d c5e7 8dbd ce0b 8cbc 0792 50bd
000001e0: e71a 16bd aa31 fbbc 4a4e a0bc 7d75 61bc
000001f0: 8658 0cbd 9d75 4ebd 1e5a cdbd 308b 33bd
00000200: fc99 26bd df5f 2ebc 73d1 09bc 75d6 71bc
00000210: 97fc 41ba bb75 753c fad4 013d 7e64 b23b
00000220: 23f3 25bd fd56 15bc 594d 793c cfad 2b3d
00000230: 5f16 3f3d 6f67 2c3c b31f f1ba aee2 e43b
00000240: 1433 ebbb 28f4 c83c 409c 2f3c c64a 373d
00000250: e5cb 903b 27c7 debc 9e2c 7fbd cca4 94bd
00000260: a28a 16bc 948b d83c 086c a13c 3160 1abb
00000270: fb99 1dbd 60aa e43c f5bc 893d 70f5 30bb
00000280: b07d 91bc 5155 c2bc 49bd 3cbd 78ed 88bd
00000290: 0608 4bbd f6c6 80bc 8a87 1d3c 170d 5bbc
000002a0: 4ae2 83bc f3c0 c03c 041b dabb 2d15 a8bd
000002b0: 6b50 44bd 8b9b 2f3d 4f98 b03c 41e3 04bd
000002c0: 6bd7 40bd 62d6 efbc 2388 613d a03a 873d
000002d0: 2688 733d e728 153d 517c a0bc 9d9e 013c
000002e0: 664c 02bd 8448 bc3b 4c4f 803c 15e2 093d
000002f0: 4916 093d 617a 993c 5212 6ebc 790c 22bc
00000300: a903 ed3c 8582 3d3c 7fc7 ecbb e74e 46bd
00000310: 0c38 ed3b 72b5 0d3c e806 563d efc6 943d
00000320: 9a46 eb3c cc53 7d3d 4333 42ba 510b 72bc
00000330: c016 133d 4fb3 af3c 59d8 863c 78ed fc3a
00000340: 9333 8c3d ad7a 013e f68e 273c 811b 0ebc
00000350: 270a 2d3d 1f88 9b3d 0565 003d cbb5 19bd
00000360: e77d 9e3d 6f22 78bc 030a 4abd b66b 1dbd
00000370: 443b 323d a948 2a3d d836 413d 211d ddbc
00000380: 6955 9e3d d9f7 073d 0f1d 4dbc d59b 943d
00000390: fc2e 193d 77cb 0e3d 5c88 f53c 148d 7c3b
000003a0: 07d0 ad3d eb72 383d cf84 693d be70 1b3d
000003b0: 0612 ca3b 2ebf 42bc 1fac 0a3d 75fe 6fbd
000003c0: 942d 313b 2a63 abbb 1bae 4dbc a194 97bc
000003d0: e591 58bd 4f37 25bd b498 52bc 0ab7 143a
000003e0: faef ddbc c72b 4cbd b8a2 7fbd 00c4 bfbd
000003f0: f3ce c4bd ed3e 9bbd 60fa 83bd 977f 66bd

net.7.bias f4 [100]
-0.03775841 -0.021467084 -0.004217919 -0.019007808 -0.057031393 0.05362053 0.10332184 0.04886266
-0.09912317 -0.034135263 0.04600929 -0.017352177 -0.017946033 0.041598327 0.027942944 -0.015561775
-0.0060461136 -0.011538874 -0.0825941 0.06528026 -0.012263393 0.12485366 0.010273178 -0.037459146
0.058902163 -0.011918025 0.0067139072 -0.030291243 -0.023688335 0.08251702 0.0049426993 -0.024557367
0.012834899 -0.051585726 0.017430156 0.007048337 -0.09323928 0.15652937 -0.027022768 -0.05064376
0.008060747 0.046467092 0.042084023 0.012374546 -0.028534506 0.112950504 0.0021791288 -0.007911274
-0.022363668 -0.019835506 0.029034521 -0.02492011 0.015803188 0.16210024 0.03068563 -0.023114154
-0.02773675 -0.0017888882 0.07671182 -0.021232124 0.0308727 0.035393056 0.033944894 0.026543684
0.01789854 -0.009199973 0.022555608 0.00036513733 -0.031357788 -0.02353237 -0.01594481 0.092710845
0.08901995 0.13563041 -0.022841997 0.00018374632 -0.041152336 -0.030664045 -0.0040951404 0.006673373
0.007387527 0.04007417 -0.011074013 0.06590653 0.007088001 0.014897774 0.07920576 -0.0045731855
-0.055548843 -0.012448329 0.006415889 0.006206689 0.0060904603 0.049854223 -0.00076823425 -0.056655068
-0.014942693 0.0014743533 0.10007936 0.072716676
00000000: 90a8 1abd bddb afbc 7836 8abb 43b6 9bbc
00000010: c099 69bd 33a1 5b3d 679a d33d 3624 483d
00000020: 1701 cbbd 6bd1 0bbd 3d74 3c3d 2726 8ebc
00000030: 8f03 93bc 0263 2a3d 9ae8 e43c d1f6 7ebc
00000040: 7a1e c6bb 8c0d 3dbc 1827 a9bd a8b1 853d
00000050: 66ec 48bc 47b3 ff3d d550 283c c36e 19bd
00000060: 6543 713d d243 43bc 5600 dc3b 5725 f8bc
00000070: 0a0e c2bc affe a83d 5ef6 a13b 882c c9bc
00000080: 7849 523c 8e4b 53bd b0c9 8e3c bcf5 e63b
00000090: 3cf4 bebd 3c49 203e da5e ddbc d56f 4fbd
000000a0: 3911 043c 4754 3e3d 4c60 2c3d 9cbe 4a3c
000000b0: 32c1 e9bc 9852 e73d b7cf 0e3b 4a9e 01bc
000000c0: 0334 b7bc 127e a2bc ced9 ed3c 4225 ccbc
000000d0: b075 813c 9bfd 253e 6e60 fb3c e559 bdbc
000000e0: 2e38 e3bc 2179 eaba 161b 9d3d feee adbc
000000f0: bfe8 fc3c 4ff8 103d cd09 0b3d 2472 d93c
00000100: f59f 923c 7cbb 16bc 8ac6 b83c e76f bf39
00000110: 0671 00bd f5c6 c0bc b19e 82bc 2fdf bd3d
00000120: 1750 b63d b3e2 0a3e 241f bbbc 07ac 4039
00000130: 5a8f 28bd 2a33 fbbc 8730 86bb 4fac da3b
00000140: 1113 f23b d024 243d c76f 35bc 01fa 863d
00000150: 7642 e83b cb15 743c a136 a23d a9da 95bb
00000160: 2f87 63bd 13f4 4bbc 613c d23b 7b61 cb3b
00000170: 7c92 c73b f133 4c3d 5463 49ba 250f 68bd
00000180: 32d2 74bc 163f c13a 68f6 cc3d 7bec 943d

net.9.weight f4 [10, 100]
-0.030699482 -0.04923773 0.048477583 0.10038805 -0.059218515 0.11790937 0.05659133 -0.057764687
0.00059302634 -0.00032725852 -0.082940824 -0.015128743 -0.022948073 -0.14324899 0.081610434 0.07551008
0.039070833 -0.041944366 0.04340427 0.049915247 -0.0046710307 0.08607413 0.085528105 -0.062410448
-0.07469784 -0.09634353 0.069276385 0.05829476 -0.018167775 0.13481158 0.013263005 -0.08976069
0.100633994 -0.12279589 0.06508377 0.048272476 -0.09911858 0.1089439 -0.022827974 -0.005984484
0.09189739 0.008166064 0.13762915 0.08551038 -0.027419837 0.017307725 -0.012454089 0.06563185
0.037869252 0.02375462 -0.08385316 0.031176483 -0.17259793 -0.18675366 0.029275456 0.087645456
0.09505792 0.09095106 -0.026991192 -0.057753153 -0.069744356 -0.009595013 -0.10931505 -0.119677186
-0.093991764 0.011014239 -0.03022728 -0.03263502 0.07616441 -0.04103339 -0.057686884 -0.038748283
-0.10194399 0.0910366 0.07106645 -0.0063866177 0.12815781 0.09515445 0.055428844 0.07025366
-0.052364845 -0.12553424 0.005668119 0.12446277 -0.062431645 -0.08688401 0.05339783 0.024683878
-0.072437406 0.09136459 0.06060837 0.17042315 -0.032514498 -0.0054744137 0.04964678 -0.032144364
-0.01919077 0.0041797645 0.033778723 -0.18898703 0.09045272 -0.08756409 0.06559221 0.11433845
0.0065185283 -0.020698706 -0.040116504 -0.193423 0.12141042 -0.011384447 -0.0895656 0.085939005
-0.059943274 -0.079993255 -0.07048166 0.10425029 0.06300893 0.028501403 0.06784088 0.12677741
0.02974518 0.044983413 0.021611812 0.13279052 -0.11581215 -0.06923922 0.0032786825 -0.018594522
-0.02738406 0.02173798 0.049414244 0.004060266 0.116032004 0.08738175 -0.11507077 -0.07114925
0.085555896 -0.10512452 0.015635606 0.0787515 0.057398554 -0.090304054 -0.09527564 -0.027473
0.09662215 -0.21088785 -0.018189691 -0.0103275925 -0.06272765 -0.06215833 -0.009955751 -0.057838053
0.12766641 -0.08476663 0.034279447 0.08921902 0.058958292 -0.059442207 -0.060546007 -0.06276156
-0.04216716 -0.15265077 -0.026875634 -0.18923603 -0.09088581 0.045993797 -0.015080516 0.019727541
0.014626177 0.055829685 0.04851629 -0.14150986 -0.10093854 -0.10241567 0.05564596 0.07485898
-0.018560436 0.085747086 -0.09656646 0.022846943 -0.039526924 -0.10866401 -0.04749466 -0.13308364
-0.07010833 0.060047213 -0.110137776 -0.008865615 0.13542801 0.03457232 0.00037256684 -0.08301461
0.04310581 -0.15080607 0.0989657 0.07018964 0.08446022 0.0033144797 0.033257913 0.036717724
-0.06962858 -0.04717149 -0.02514462 -0.083211064 -0.07188121 -0.06300731 -0.123801135 -0.03627138
0.049333055 0.032699205 -0.009724514 0.103612244 -0.04929892 0.08104725 0.13387434 -0.09241722
-0.03327091 -0.035450812 -0.023895169 0.039098307 0.053373814 0.026730005 -0.09326221 -0.032228414
-0.06862829 -0.03271833 0.02133344 0.067025386 -0.047273282 0.14587037 0.012278079 0.028418532
-0.064952016 0.062637374 0.019373775 -0.04480606 -0.07696536 0.012471732 0.04019864 -0.07173335
0.08392134 0.1109907 -0.062410403 -0.0720599 0.016700787 -0.0150566045 0.03665965 0.016812973
0.04445221 -0.0142708635 -0.009764096 -0.10511769 -0.11251983 0.07362598 0.017950198 -0.040720228
00000000: 7b7d fbbc 81ad 49bd 6e90 463d 4098 cd3d
00000010: 1d8f 72bd 787a f13d 4fcc 673d aa9a 6cbd
00000020: 5375 1b3a e593 abb9 e1dc a9bd 8cde 77bc
00000030: 99fd bbbc ddaf 12be 5f23 a73d 07a5 9a3d
00000040: bd08 203d dbcd 2bbd adc8 313d ee73 4c3d
00000050: 720f 99bb a247 b03d 5c29 af3d 19a2 7fbd
00000060: 2efb 98bd c24f c5bd c7e0 8d3d 7cc6 6e3d
00000070: 96d4 94bc 0c0c 0a3e 134d 593c 74d4 b7bd
00000080: 3219 ce3d 697c fbbd a44a 853d 5cb9 453d
00000090: affe cabd fb1d df3d bb01 bbbc 7e19 c4bb
000000a0: b334 bc3d f4ca 053c a8ee 0c3e 1120 af3d
000000b0: 919f e0bc eec8 8d3c 3c0c 4cbc fe69 863d
000000c0: ca1c 1b3d 0d99 c23c 35bb abbd d365 ff3c
000000d0: 83bd 30be 5a3c 3fbe 15d3 ef3c 767f b33d
000000e0: baad c23d 8d44 ba3d a21c ddbc 928e 6cbd
000000f0: 21d6 8ebd 6734 1dbc 92e0 dfbd 5019 f5bd
00000100: c17e c0bd 1175 343c 339f f7bc 4cac 05bd
00000110: 16fc 9b3d a112 28bd 1549 6cbd 85b6 1ebd
00000120: 03c8 d0bd 6671 ba3d 498b 913d d546 d1bb
00000130: cd3b 033e 56e0 c23d 5b09 633d 27e1 8f3d
00000140: 857c 56bd 0c8c 00be a1bb b93b 56e6 fe3d
00000150: 53b8 7fbd 3ef0 b1bd afb7 5a3d d835 ca3c
00000160: 105a 94bd 5c1d bb3d 7b40 783d 6883 2e3e
00000170: ec2d 05bd b662 b3bb 6c5a 4b3d cfa9 03bd
00000180: f635 9dbc 68f6 883b 8f5b 0a3d d185 41be
00000190: 473f b93d cd54 b3bd 3555 863d 472a ea3d
000001a0: 6199 d53b 5590 a9bc 3451 24bd ae10 46be
000001b0: 07a6 f83d d585 3abc 2b6e b7bd ca00 b03d
000001c0: 1487 75bd 81d3 a3bd b058 90bd 2d81 d53d
000001d0: d30a 813d c67b e93c 29f0 8a3d f0d1 013e
000001e0: 2aac f33c 8740 383d 410b b13c 3dfa 073e
000001f0: ec2e edbd 4bcd 8dbd 2adf 563b 8a53 98bc
00000200: 8954 e0bc d913 b23c 9766 4a3d fb0b 853b
00000210: 30a2 ed3d 34f5 b23d 39aa ebbd b3b6 91bd
00000220: ee37 af3d 864b d7bd 3e16 803c 7748 a13d
00000230: bf1a 6b3d 55f1 b8bd e01f c3bd 0f0f e1bc
00000240: d5e1 c53d fcf2 57be 8c02 95bc 1035 29bc
00000250: 5b77 80bd bc99 7ebd 721d 23bc 98e7 6cbd
00000260: fcba 023e 209a adbd 9b68 0c3d 76b8 b63d
00000270: 407e 713d ac79 73bd 17ff 77bd 2289 80bd
00000280: 79b7 2cbd 7c50 1cbe 4a2a dcbc 17c7 41be
00000290: 5722 babd fe63 3c3d 4514 77bc a79b a13c
000002a0: a2a2 6f3c abad 643d 04b9 463d f6e7 10be
000002b0: deb8 cebd 4fbf d1bd 05ed 633d aa4f 993d
000002c0: 0e0c 98bc 2b9c af3d a3c4 c5bd 8329 bb3c
000002d0: fce6 21bd 3d8b debd c389 42bd 1447 08be
000002e0: f594 8fbd 11f4 753d ea8f e1bd 1641 11bc
000002f0: a4ad 0a3e b49b 0d3d 1355 c339 9003 aabd
00000300: b88f 303d e86c 1abe 87ae ca3d 96bf 8f3d
00000310: 7bf9 ac3d be37 593b 7339 083d 5365 163d
00000320: 6e99 8ebd e436 41bd 17fc cdbc 906a aabd
00000330: 7536 93bd fa09 81bd 738b fdbd 4c91 14bd
00000340: 7511 4a3d 9aef 053d 9153 1fbc a832 d43d
00000350: aaed 49bd 1afc a53d 5b16 093e 3d45 bdbd
00000360: 1447 08bd df34 11bd cdbf c3bc 8c25 203d
00000370: 809e 5a3d e2f8 da3c 4200 bfbd f101 04bd
00000380: fd8c 8cbd a803 06bd 77c3 ae3c 9b44 893d
00000390: a1a1 41bd 0b5f 153e ff29 493c fbcd e83c
000003a0: 9005 85bd 0648 803d c0b5 9e3c 8f86 37bd
000003b0: 04a0 9dbd 3c56 4c3c 54a7 243d efe8 92bd
000003c0: f4de ab3d 184f e33d 0da2 7fbd 2494 93bd
000003d0: 17d0 883c faaf 76bc 6e28 163d 5cbb 893c
000003e0: 8513 363d 57d0 69bc 96f9 1fbc f247 d7bd
000003f0: cc70 e6bd 38c9 963d 4b0c 933c 41ca 26bd

net.9.bias f4 [10]
0.030902406 -0.1588079 0.025157679 -0.036509253 0.14472254 -0.056452908 0.0042860187 -0.10035462
0.067447394 -0.13953447
00000000: 0b27 fd3c 8a9e 22be 7a17 ce3c ba8a 15bd
00000010: 2532 143e 2a3b 67bd bb71 8c3b b986 cdbd
00000020: dc21 8a3d 20e2 0ebe
